examples/results/foo/AnimalAI/checkpoint.pt (torch, 31874 bytes, 40 tensors)

discrete_act_size_vector f4 [1, 2]
3.0 3.0
00000000: 0000 4040 0000 4040

network_body._body_endoder.seq_layers.0.weight f4 [10, 47]
-0.046173517 -0.023304982 0.21376717 -0.10992234 0.072622426 -0.040046506 -0.0080033 0.12303257
-0.182433 0.12684575 -0.07604738 -0.054564793 0.11670486 -0.062299374 0.31452796 0.012715176
-0.019830907 0.1532783 -0.116140336 0.11996192 -0.08342346 0.17517725 0.15583667 0.12456904
0.18737845 -0.043868728 -0.25481743 -0.17417534 -0.3267575 -0.024614457 -0.30754504 -0.14336962
0.08715861 -0.10923264 0.2571659 -0.041304998 -0.15863618 -0.23252694 -0.09322519 0.20715608
-0.047675237 0.15085708 0.035550937 -0.15369645 0.37808192 0.033574842 -0.0026893776 -0.112629406
0.039024394 -0.1252106 0.028131936 0.06836254 -0.05256482 0.117717855 -0.15850422 0.11154331
0.008905074 0.08879612 0.089336984 0.22158378 0.10045652 0.12020691 0.1377891 0.13054432
-0.006409473 -0.47097102 0.01886281 0.15919293 0.041775476 -0.038738634 0.13951904 -0.059988506
-0.10359015 0.046039343 0.24309057 0.19423841 -0.05095732 -0.03598926 0.061223987 0.025800355
-0.13330802 0.4021764 -0.035838056 0.05027269 0.075559035 0.11487502 0.059700757 -0.32977444
-0.21420696 0.16739553 0.028237315 -0.356205 0.13517231 0.17193107 0.07936948 -0.05252543
0.14455232 0.04598836 0.060450204 -0.15951942 0.17191921 0.0045429925 0.23074701 -0.19291897
0.17050931 0.23057604 0.051320642 -0.05488336 -0.039592933 -0.11385894 -0.18045746 -0.17248194
-0.28539744 0.16678126 0.19870426 0.3109709 -0.19282213 -0.31423646 0.13083395 0.058199577
-0.043963578 -0.010257834 -0.20673712 -0.19077821 -0.21865621 -0.13400283 0.08411833 0.14239529
0.18557906 0.031511087 0.10263364 -0.23041348 -0.1092089 -0.19881436 0.1648769 0.17204696
0.34827462 -0.08078062 0.07682155 0.34025514 -0.12117876 0.037371654 0.13117117 0.0072225616
-0.04567565 -0.1285415 -0.07670528 -0.19274186 0.06864751 0.014697391 0.33853447 -0.1458424
-0.12557937 -0.096198305 -0.09622763 0.046982642 -0.26028645 0.12530436 0.15712406 0.031449854
0.20712952 -0.23757145 -0.08008623 0.11633911 0.29424214 0.18374002 0.081586726 -0.19083083
-0.16030104 0.035214983 -0.28416985 0.009261885 0.034841493 0.10898517 -0.11528989 -0.1253989
0.1530819 0.29352155 0.31412345 -0.024296457 0.0016789178 0.07438145 0.15553264 0.014968014
-0.301799 -0.119005024 -0.087714225 0.00063272705 -0.057498235 -0.018752564 -0.007047204 0.13780706
0.23275407 -0.1261368 -0.08262237 0.033887267 -0.08139378 -0.15931688 0.032414734 -0.15610558
-0.15842208 0.05888778 0.0014971668 -0.12029381 0.18769555 -0.118316986 0.21063302 -0.09006156
0.006190247 0.039613474 -0.1556181 -0.16980264 0.039977632 -0.05279067 0.26860085 0.22732371
0.23463847 -0.06864321 0.22298636 -0.25152567 0.08877908 0.07480246 -0.0201457 0.008247847
-0.07839926 0.028025221 0.23957309 0.04574938 0.119518414 0.085330844 0.008138997 0.028922431
-0.028204415 0.075790964 -0.1072151 0.20643777 0.1171577 0.1556127 0.0379953 -0.07913677
-0.13009031 -0.17658107 0.07028837 0.23329721 -0.03415924 0.13301621 0.06827835 0.013855661
-0.095368005 -0.06387562 -0.12007355 0.15988232 0.059076138 -0.14030755 -0.0038321416 0.2903207
00000000: 7120 3dbd 17ea bebc c8e5 5a3e f71e e1bd
00000010: 11bb 943d ce07 24bd 4620 03bc 80f8 fb3d
00000020: b7cf 3abe dae3 013e bbbe 9bbd 557f 5fbd
00000030: f502 ef3d a12d 7fbd cf09 a13e 5053 503c
00000040: 6d74 a2bc fdf4 1c3e fcda edbd 98ae f53d
00000050: ebd9 aabd aa61 333e a693 1f3e 0e1e ff3d
00000060: 23e0 3f3e b2af 33bd 6e77 82be 055b 32be
00000070: c24c a7be 42a4 c9bc 8b76 9dbe 7ccf 12be
00000080: 3780 b23d 5db5 dfbd 40ab 833e 6e2f 29bd
00000090: 8671 22be 8b1b 6ebe d9ec bebd b920 543e
000000a0: 1c47 43bd 477a 1a3e dc9d 113d 9a62 1dbe
000000b0: f493 c13e c685 093d 4540 30bb 3faa e6bd
000000c0: 0bd8 1f3d 3537 00be f274 e63c a901 8c3d
000000d0: 354e 57bd 0f16 f13d ee4e 22be d270 e43d
000000e0: 96e6 113c bdda b53d 4ff6 b63d dce6 623e
000000f0: 26bc cd3d 0a2f f63d 9618 0d3e 69ad 053e
00000100: 8e06 d2bb 1d23 f1be 2e86 9a3c 7903 233e
00000110: c31c 2b3d 67ac 1ebd 14de 0e3e 82b6 75bd
00000120: 1327 d4bd c093 3c3d bcec 783e 6fe6 463e
00000130: 9fb8 50bd 7969 13bd 01c6 7a3d 445b d33c
00000140: e681 08be 11ea cd3e edca 12bd bcea 4d3d
00000150: b2be 9a3d 9843 eb3d c888 743d 32d8 a8be
00000160: 1259 5bbe bc69 2b3e f151 e73c 8060 b6be
00000170: 9c6a 0a3e b30e 303e 778c a23d e824 57bd
00000180: 8605 143e 4a5e 3c3d a29a 773d 0f59 23be
00000190: 970b 303e 62dd 943b f248 6c3e 8d8c 45be
000001a0: fe99 2e3e 201c 6c3e 9835 523d 60cd 60bd
000001b0: 332c 22bd e02e e9bd d7c9 38be 1b9f 30be
000001c0: 9d1f 92be b5c8 2a3e 2179 4b3e 9437 9f3e
000001d0: 2a73 45be 9ae3 a0be 56f9 053e ae62 6e3d
000001e0: 2713 34bd 7910 28bc e5b2 53be 5d5b 43be
000001f0: 6ae7 5fbe 0a38 09be 3b46 ac3d 12d0 113e
00000200: 7008 3e3e c511 013d 9631 d23d 83f1 6bbe
00000210: eaa8 dfbd fe95 4bbe 7dd5 283e 142d 303e
00000220: 0d51 b23e 4f70 a5bd 9e54 9d3d ec35 ae3e
00000230: 922c f8bd 0513 193d bc51 063e 3dab ec3b
00000240: 6416 3bbd 62a0 03be a817 9dbd 1f5e 45be
00000250: 1197 8c3d 53cd 703c 6454 ad3e b657 15be
00000260: e197 00be 9e03 c5bd fe12 c5bd df70 403d
00000270: 4444 85be c94f 003e 21e5 203e 90d1 003d
00000280: c319 543e ee45 73be 4004 a4bd 3343 ee3d
00000290: e8a6 963e 5826 3c3e f116 a73d 2869 43be
000002a0: f525 24be 963d 103d b67e 91be 29bf 173c
000002b0: f4b5 0e3d 9e33 df3d 1b1d ecbd 9268 00be
000002c0: 80c1 1c3e 7548 963e cad4 a03e 5d09 c7bc
000002d0: 220f dc3a 4d55 983d f343 1f3e 673c 753c
000002e0: 6685 9abe e8b8 f3bd 84a3 b3bd 98dd 253a
000002f0: 4583 6bbd fa9e 99bc 3bec e6bb 4b1d 0d3e
00000300: 1557 6e3e 012a 01be eb35 a9bd 60cd 0a3d
00000310: c8b1 a6bd f723 23be 50c5 043d 24da 1fbe
00000320: 6639 22be 5034 713d 953c c43a 9a5c f6bd
00000330: 4333 403e 2d50 f2bd 2fb0 573e 3272 b8bd
00000340: 8ed7 ca3b bd41 223d 5a5a 1fbe bee0 2dbe
00000350: 96bf 233d 083b 58bd 0d86 893e 8cc7 683e
00000360: 1145 703e d094 8cbd 8956 643e f9c7 80be
00000370: ced1 b53d 0832 993d 9808 a5bc fa21 073c
00000380: cb8f a0bd 2695 e53c a652 753e b463 3b3d
00000390: 12c6 f43d f0c1 ae3d 6d59 053c bcee ec3c
000003a0: f20c e7bc 4b38 9b3d 9793 dbbd 6c64 533e
000003b0: 60f0 ef3d f058 1f3e f6a0 1b3d 7512 a2bd
000003c0: 6536 05be abd1 34be 59f3 8f3d 77e5 6e3e
000003d0: 8fea 0bbd 6735 083e 85d5 8b3d db02 633c
000003e0: 4d50 c3bd 39d1 82bd 1fe9 f5bd 31b8 233e
000003f0: d2f9 713d c8ac 0fbe ab24 7bbb eaa4 943e

network_body._body_endoder.seq_layers.0.bias f4 [10]
-0.00020433468 0.002228973 0.00024973493 -2.623929e-05 -0.0007254368 -0.0013244464 0.0016984615 0.0009209573
0.0018062133 0.0028073085
00000000: ac42 56b9 f613 123b dbee 8239 721c dcb7
00000010: 3d2b 3eba 0c99 adba e99e de3a 666c 713a
00000020: 76be ec3a d2fa 373b

network_body._body_endoder.seq_layers.2.weight f4 [10, 10]
0.30204654 -0.07599366 0.1582325 -0.12023499 -0.50465715 -0.18724848 -0.4335514 0.32675138
-0.05037734 0.061514843 0.163661 0.2632477 0.523759 -0.17892213 0.030812887 0.64824086
0.23306757 0.13646902 -0.32789323 -0.15841122 0.012549441 0.42759657 0.27277255 0.5396628
0.027873918 -0.14466451 -0.09404811 0.048564613 -0.29635805 -0.05980737 -0.06635057 -0.00032440101
0.17326723 -0.39830786 0.13695344 0.19407576 -0.22121553 0.1935095 0.49374735 0.21879275
0.34427294 0.23462063 0.2199997 -0.027803823 -0.6829266 -0.035555474 -0.4139638 -0.17295621
0.015083146 0.2508245 0.42199773 -0.10558042 -0.037190672 0.34269464 0.09294486 -0.3408416
-0.3985984 -0.124461375 -0.3874664 0.1494478 0.1347521 0.17737798 -0.10317473 0.24114877
-0.024347834 0.15900782 -0.0015215436 -0.056635357 -0.55650914 0.029504897 0.38567343 0.27950138
0.08965567 0.19236259 0.024682939 -0.08922195 -0.1683685 -0.16591403 0.10015083 0.35478824
-0.88770294 -0.285867 -0.3434801 -0.04528952 0.30386525 -0.48946434 -0.4561852 -0.28518707
-0.19040678 0.0078769345 0.28029427 -0.398197 -0.19523904 0.6647316 -0.17021786 -0.060444765
-0.2723409 -0.044318326 -0.55114573 -0.8774361
00000000: d8a5 9a3e 90a2 9bbd b307 223e c33d f6bd
00000010: 3631 01bf 11be 3fbe 73fa ddbe f54b a73e
00000020: 7858 4ebd fdf6 7b3d c096 273e 67c8 863e
00000030: 1215 063f 5d37 37be 4f6b fc3c 1df3 253f
00000040: 44a9 6e3e 89be 0b3e 9fe1 a7be 8d36 22be
00000050: 2c9c 4d3c f0ed da3e d8a8 8b3e 5727 0a3f
00000060: d857 e43c ef22 14be 4c9c c0bd b0eb 463d
00000070: 3ebc 97be 93f8 74bd cfe2 87bd 5e14 aab9
00000080: f76c 313e 02ef cbbe 863d 0c3e ccbb 463e
00000090: 5386 62be 5b27 463e 74cc fc3e 350b 603e
000000a0: 8b44 b03e 6440 703e 9a47 613e d8c4 e3bc
000000b0: 47d4 2ebf 9ea2 11bd 10f3 d3be 6f1b 31be
000000c0: 4d1f 773c 126c 803e 1610 d83e 8c3a d8bd
000000d0: 3f55 18bd ac75 af3e e059 be3d ca82 aebe
000000e0: 1715 ccbe 9be5 febd ff61 c6be d808 193e
000000f0: 74fc 093e 93a2 353e 464d d3bd b4ef 763e
00000100: 1c75 c7bc f2d2 223e 886e c7ba 7afa 67bd
00000110: 6277 0ebf 41b4 f13c fd76 c53e ce1a 8f3e
00000120: 649d b73d b3fa 443e e033 ca3c ffb9 b6bd
00000130: cb68 2cbe 5ee5 29be e11b cd3d cea6 b53e
00000140: 8040 63bf 295d 92be a0dc afbe 8181 39bd
00000150: 3a94 9b3e 129b fabe 1b91 e9be 0a04 92be
00000160: fff9 42be 420e 013c bb82 8f3e 7ae0 cbbe
00000170: beec 47be da2b 2a3f 974d 2ebe ee94 77bd
00000180: 4470 8bbe 2287 35bd e317 0dbf a79f 60bf

network_body._body_endoder.seq_layers.2.bias f4 [10]
-0.0009581858 -0.000247004 -0.0023397515 0.0017919304 0.0024584087 -0.0008089745 0.0021100913 -0.0017456675
-0.0022872658 -0.0003006369
00000000: c32e 7bba 5180 81b9 8456 19bb 35df ea3a
00000010: 411d 213b 5c11 54ba 7549 0a3b e2ce e4ba
00000020: f4e5 15bb cd9e 9db9

action_model._discrete_distribution.branches.0.weight f4 [3, 10]
-0.0011162907 -0.01680302 0.048833404 -0.03464245 -0.042421527 0.021300616 -0.031945292 0.006242786
0.07134344 0.033163626 -0.040981356 0.016148768 0.021210987 -0.044051927 -0.013795545 -0.011972073
0.08041962 -0.034334973 -0.015123193 -0.002127662 -0.03561369 -0.021807723 -0.035366442 0.0077752443
0.011368435 0.024451835 0.016892793 -0.057348784 0.023360567 0.007685621
00000000: 8050 92ba 7da6 89bc 8905 483d 3ee5 0dbd
00000010: 32c2 2dbd a17e ae3c 11d9 02bd 4990 cc3b
00000020: 821c 923d 95d6 073d 11dc 27bd 6c4a 843c
00000030: aac2 ad3c cb6f 34bd b606 62bc 8426 44bc
00000040: 0bb3 a43d d4a2 0cbd 45c7 77bc 3f70 0bbb
00000050: a9df 11bd 1ca6 b2bc 67dc 10bd 7ac7 fe3b
00000060: ac42 3a3c 374f c83c c162 8a3c 8fe6 6abd
00000070: a95e bf3c a9d7 fb3b

action_model._discrete_distribution.branches.0.bias f4 [3]
-0.0029204455 0.0003457684 0.0035851293
00000000: f264 3fbb 4048 b539 7df4 6a3b

action_model._discrete_distribution.branches.1.weight f4 [3, 10]
-0.012701691 0.0037022084 0.08092873 -0.014149468 -0.0738129 -0.008282305 -0.037045926 -0.06898978
0.0282339 -0.0028890534 -0.039400917 -0.035871178 -0.029854316 -0.009981252 0.012893178 -0.010779285
-0.0050006597 0.009454269 -0.0074285367 -0.044024903 0.04281832 0.031886503 0.0068120556 -0.02325744
0.021316338 -0.035527967 0.005372789 -0.026542455 -0.005335889 0.060973093
00000000: c11a 50bc c0a0 723b f6bd a53d 2cd3 67bc
00000010: 382b 97bd 81b2 07bc 78bd 17bd 844a 8dbd
00000020: c84a e73c 4656 3dbb db62 21bd a8ed 12bd
00000030: 0a91 f4bc 6888 23bc e83d 533c 999b 30bc
00000040: 93dc a3bb 14e6 1a3c 156b f3bb 7553 34bd
00000050: 4362 2f3d 6c9b 023d aa37 df3b 6386 bebc
00000060: 9a9f ae3c c685 11bd 390e b03b 906f d9bc
00000070: aed8 aebb ecbe 793d

action_model._discrete_distribution.branches.1.bias f4 [3]
-0.0014075137 -6.265933e-05 0.00084763905
00000000: 537c b8ba f967 83b8 1834 5e3a

exp_avg f4 [10, 47]
0.00013092661 5.7412224e-05 -8.150075e-05 -9.073041e-06 0.0 0.0 0.0 1.774744e-05
7.192844e-05 8.902529e-05 -6.3188745e-05 0.0 0.0 0.0 0.0 8.196762e-06
-2.075545e-05 7.804456e-05 4.0475905e-05 0.0 0.0 0.0 0.0 7.5947296e-06
0.00018088166 0.0001678031 -0.00025434684 3.4271163e-06 0.0 0.0 0.0 1.7154824e-05
0.00011180643 1.4911383e-05 -2.8952752e-05 0.0 0.0 0.0 0.0 1.238472e-05
-0.008659141 -0.00019348724 4.052309e-06 7.7589255e-05 0.0017938392 4.776068e-05 0.002931727 1.74384e-05
-2.0079855e-05 1.577267e-06 1.4438e-13 0.0 0.0 0.0 1.0466683e-06 -1.5719688e-05
3.2813912e-06 1.1374109e-05 0.0 0.0 0.0 0.0 -8.973768e-07 -1.2697974e-06
-1.3702798e-05 1.3908409e-05 0.0 0.0 0.0 0.0 -2.639646e-07 -2.0573587e-05
1.01413225e-05 9.368133e-06 -5.475496e-11 0.0 0.0 0.0 -4.929409e-07 1.5253632e-07
-1.5457344e-05 1.4240619e-05 0.0 0.0 0.0 0.0 5.922186e-09 1.7008258e-06
1.3495124e-06 -9.324275e-19 3.496195e-05 -2.3087665e-05 -5.2145253e-07 -8.204417e-05 -7.820829e-05 4.032797e-05
-2.9870649e-05 -4.075883e-06 0.0 0.0 0.0 -3.1345667e-06 4.6591973e-05 5.6009435e-06
-0.00012401976 0.0 0.0 0.0 0.0 3.0908577e-06 2.1780272e-05 -7.182328e-05
-2.178384e-05 0.0 0.0 0.0 0.0 6.284499e-06 6.3669395e-05 2.633295e-05
-0.00017064788 8.818676e-06 0.0 0.0 0.0 4.6116393e-06 -2.9773693e-05 -9.425375e-05
5.2200616e-05 0.0 0.0 0.0 0.0 -3.5165797e-06 0.0025573287 1.7865681e-05
4.1240614e-07 0.00023316559 -0.0015844789 -3.526677e-05 -0.0020637072 -4.907145e-06 -0.00012998862 0.00017580045
8.783822e-06 0.0 0.0 0.0 -1.3138518e-06 -1.3828428e-05 -0.00010066443 0.00016418133
0.0 0.0 0.0 0.0 -4.5872707e-06 -8.344181e-05 -5.1277516e-06 0.00013825804
0.0 0.0 0.0 0.0 -2.0550838e-06 -1.2107647e-07 -6.541727e-05 0.000116705356
-1.4785165e-06 0.0 0.0 0.0 -2.0753228e-06 2.6317459e-05 -6.842601e-05 9.179701e-05
0.0 0.0 0.0 0.0 3.4153356e-06 0.002072531 4.8130853e-05 -5.6063013e-06
-0.0004939151 0.0008920846 2.4308758e-05 0.0012365935 2.1796153e-05 -0.0001381805 0.00012828455 1.5945316e-05
0.0 0.0 0.0 2.2979216e-07 -9.491938e-05 -9.50504e-05 0.00021781532 0.0
0.0 0.0 0.0 -1.02256945e-05 -7.973333e-05 -3.7342536e-06 0.00011131305 0.0
0.0 0.0 0.0 -7.5150874e-06 -4.4567863e-05 -6.055012e-05 0.00014441911 -1.1455649e-05
0.0 0.0 0.0 -6.203744e-06 -9.059464e-05 2.3668092e-05 9.477203e-05 0.0
0.0 0.0 0.0 -7.304963e-06 0.0032637557 -3.839418e-05 -7.986137e-06 -0.0006161619
0.0008104101 1.3767647e-05 0.001101106 3.0409497e-05 -1.3245097e-05 1.9223821e-06 1.6180013e-09 0.0
0.0 0.0 1.9552797e-06 -6.62048e-06 5.424421e-06 2.0284459e-05 0.0 0.0
0.0 0.0 -3.617588e-07 -2.696777e-06 -1.30344e-06 2.3088614e-05 0.0 0.0
00000000: 5849 0939 e8cd 7038 62eb aab8 6a38 18b7
00000010: 0000 0000 0000 0000 0000 0000 56e0 9437
00000020: 4ad8 9638 17b3 ba38 3384 84b8 0000 0000
00000030: 0000 0000 0000 0000 0000 0000 d384 0937
00000040: fd1b aeb7 dbab a338 acc4 2938 0000 0000
00000050: 0000 0000 0000 0000 0000 0000 3bd6 fe36
00000060: 0dab 3d39 4df4 2f39 db59 85b9 69fd 6536
00000070: 0000 0000 0000 0000 0000 0000 b4e7 8f37
00000080: 9f79 ea38 e72b 7a37 90df f2b7 0000 0000
00000090: 0000 0000 0000 0000 0000 0000 f8c7 4f37
000000a0: 12df 0dbc d6e2 4ab9 12f9 8736 6ab7 a238
000000b0: 411f eb3a a452 4838 3822 403b ae48 9237
000000c0: 2971 a8b7 7bb2 d335 b48e 222a 0000 0000
000000d0: 0000 0000 0000 0000 407b 8c35 c6dd 83b7
000000e0: df35 5c36 6dd3 3e37 0000 0000 0000 0000
000000f0: 0000 0000 0000 0000 44e3 70b5 e86d aab5
00000100: 12e5 65b7 2958 6937 0000 0000 0000 0000
00000110: 0000 0000 0000 0000 05b7 8db4 7195 acb7
00000120: a624 2a37 d32b 1d37 9bd0 70ae 0000 0000
00000130: 0000 0000 0000 0000 a452 04b5 ddc8 2334
00000140: 65aa 81b7 feea 6e37 0000 0000 0000 0000
00000150: 0000 0000 0000 0000 197c cb31 ee47 e435
00000160: e520 b535 1d9a 89a1 1ca4 1238 62ac c1b7
00000170: f2f9 0bb5 210f acb8 c203 a4b8 d425 2938
00000180: bb92 fab7 92c3 88b6 0000 0000 0000 0000
00000190: 0000 0000 725b 52b6 c06b 4338 bdef bb36
000001a0: 4d0b 02b9 0000 0000 0000 0000 0000 0000
000001b0: 0000 0000 886c 4f36 c7b4 b637 d49f 96b8
000001c0: 71bc b6b7 0000 0000 0000 0000 0000 0000
000001d0: 0000 0000 6fdf d236 3f86 8538 94e5 dc37
000001e0: f1ef 32b9 edf3 1337 0000 0000 0000 0000
000001f0: 0000 0000 aebd 9a36 85c2 f9b7 19aa c5b8
00000200: fcf1 5a38 0000 0000 0000 0000 0000 0000
00000210: 0000 0000 61fe 6bb6 db98 273b 42de 9537
00000220: ab68 dd34 e97d 7439 4aae cfba 68eb 13b8
00000230: 433f 07bb 0ea8 a4b6 8e4d 08b9 1357 3839
00000240: 3a5e 1337 0000 0000 0000 0000 0000 0000
00000250: 9b57 b0b5 a500 68b7 ce1b d3b8 1728 2c39
00000260: 0000 0000 0000 0000 0000 0000 0000 0000
00000270: 5bec 99b6 7bfd aeb8 0d0f acb6 5cf9 1039
00000280: 0000 0000 0000 0000 0000 0000 0000 0000
00000290: 12ea 09b6 3f01 02b4 a130 89b8 b6bf f438
000002a0: 7171 c6b5 0000 0000 0000 0000 0000 0000
000002b0: c645 0bb6 50c4 dc37 ef7f 8fb8 2583 c038
000002c0: 0000 0000 0000 0000 0000 0000 0000 0000
000002d0: 0533 6536 4dd3 073b 1ce0 4938 c31d bcb6
000002e0: 157a 01ba c9da 693a a9ea cb37 3115 a23a
000002f0: e2d6 b637 8ce4 10b9 1f84 0639 4ec2 8537
00000300: 0000 0000 0000 0000 0000 0000 cabc 7634
00000310: 740f c7b8 cc55 c7b8 5b65 6439 0000 0000
00000320: 0000 0000 0000 0000 0000 0000 068f 2bb7
00000330: 8136 a7b8 fd99 7ab6 bd70 e938 0000 0000
00000340: 0000 0000 0000 0000 0000 0000 1c2a fcb6
00000350: 61ee 3ab8 32f7 7db8 366f 1739 a331 40b7
00000360: 0000 0000 0000 0000 0000 0000 c129 d0b6
00000370: a1fd bdb8 d78a c637 59c0 c638 0000 0000
00000380: 0000 0000 0000 0000 0000 0000 281d f5b6
00000390: bce4 553b 7009 21b8 32fc 05b7 ed85 21ba
000003a0: b471 543a 98fb 6637 fd52 903a e617 ff37
000003b0: 4237 5eb7 4602 0136 5c60 de30 0000 0000
000003c0: 0000 0000 0000 0000 7337 0336 7d25 deb6
000003d0: 6c03 b636 8b28 aa37 0000 0000 0000 0000
000003e0: 0000 0000 0000 0000 c037 c2b4 47fa 34b6
000003f0: dbf1 aeb5 6cae c137 0000 0000 0000 0000

exp_avg_sq f4 [10, 47]
3.8864496e-08 5.928501e-08 1.3215086e-08 7.067041e-11 0.0 0.0 0.0 2.6873642e-10
2.3701238e-08 3.7596656e-08 4.2427384e-08 0.0 0.0 0.0 0.0 1.10279536e-10
1.1373654e-08 5.9850215e-08 2.9312758e-08 0.0 0.0 0.0 0.0 2.757154e-10
2.0833989e-08 3.1222704e-08 6.0604144e-08 3.5748598e-12 0.0 0.0 0.0 1.0668199e-10
2.9597256e-09 7.201829e-08 3.7183273e-08 0.0 0.0 0.0 0.0 7.6747546e-11
5.7149686e-05 1.05315205e-08 8.0339155e-12 4.4833857e-07 4.6980917e-05 2.7687948e-08 7.4492185e-05 5.850896e-11
2.1863254e-10 8.29516e-13 8.440452e-26 0.0 0.0 0.0 3.3871137e-13 8.340593e-11
1.236068e-10 5.154104e-11 0.0 0.0 0.0 0.0 3.2767989e-13 1.1279096e-12
2.1628548e-10 5.0505208e-11 0.0 0.0 0.0 0.0 4.146452e-13 1.06569274e-10
1.2411812e-10 5.6911382e-11 1.0081403e-21 0.0 0.0 0.0 4.594387e-13 1.1848634e-14
2.2253377e-10 5.2167402e-11 0.0 0.0 0.0 0.0 1.2753947e-13 9.403263e-10
2.6282015e-11 2.899828e-36 1.2490745e-09 9.2909524e-08 5.683389e-11 1.6051992e-07 2.3120659e-09 2.7272908e-09
4.635551e-09 2.6109325e-11 0.0 0.0 0.0 2.4330133e-11 2.0292346e-09 3.8046233e-09
6.4685177e-09 0.0 0.0 0.0 0.0 1.4065298e-11 2.3315483e-09 5.0972635e-09
3.802819e-09 0.0 0.0 0.0 0.0 2.1626752e-11 1.2872694e-09 3.1063763e-09
8.391296e-09 2.7378204e-11 0.0 0.0 0.0 8.529085e-12 1.8199421e-09 6.4881487e-09
3.9139048e-09 0.0 0.0 0.0 0.0 2.5323086e-11 4.7742113e-05 8.2318474e-10
1.5818164e-12 3.722427e-08 4.4249705e-06 2.7098104e-09 6.5623003e-06 3.7565684e-09 8.069899e-09 1.0622488e-08
9.784395e-11 0.0 0.0 0.0 4.6624735e-11 3.0863756e-09 6.5856716e-09 1.4292695e-08
0.0 0.0 0.0 0.0 2.769787e-11 2.8226435e-09 6.938083e-09 1.0608408e-08
0.0 0.0 0.0 0.0 2.6204768e-11 2.0780835e-09 8.343387e-09 1.2185641e-08
8.225946e-13 0.0 0.0 0.0 1.9435672e-11 2.572181e-09 1.0830106e-08 1.0615648e-08
0.0 0.0 0.0 0.0 2.4073502e-11 0.00011455792 1.3227732e-09 1.8378472e-11
8.644864e-08 7.1894265e-06 4.498713e-09 9.608272e-06 3.6675574e-09 8.454751e-09 1.2546262e-08 1.5524199e-10
0.0 0.0 0.0 4.1518077e-11 3.4097485e-09 7.784548e-09 1.5604101e-08 0.0
0.0 0.0 0.0 3.2503573e-11 4.640182e-09 9.682914e-09 1.1381544e-08 0.0
0.0 0.0 0.0 6.246131e-11 3.384253e-09 9.8639585e-09 1.2737175e-08 4.3245574e-11
0.0 0.0 0.0 2.9303754e-11 4.8069713e-09 1.2080233e-08 1.23645645e-08 0.0
0.0 0.0 0.0 4.8790406e-11 0.00011019608 1.887642e-09 2.5099759e-11 1.0907463e-07
8.892368e-06 5.5848752e-09 1.2281466e-05 1.2305136e-10 1.5476954e-10 2.6728723e-11 4.057383e-18 0.0
0.0 0.0 7.866093e-13 9.7869116e-11 9.1258286e-11 1.4743727e-10 0.0 0.0
0.0 0.0 3.854716e-13 1.0752902e-11 1.8589266e-10 1.2604894e-10 0.0 0.0
00000000: f7eb 2633 8fa0 7e33 9008 6332 e767 9b2e
00000010: 0000 0000 0000 0000 0000 0000 4abd 932f
00000020: 9397 cb32 f679 2133 6739 3633 0000 0000
00000030: 0000 0000 0000 0000 0000 0000 dc81 f22e
00000040: dc65 4332 0187 8033 70cb fb32 0000 0000
00000050: 0000 0000 0000 0000 0000 0000 7e93 972f
00000060: 6df6 b232 ba19 0633 7b25 8233 f38e 7b2c
00000070: 0000 0000 0000 0000 0000 0000 9f98 ea2e
00000080: 0b64 4b31 79a8 9a33 71b3 1f33 0000 0000
00000090: 0000 0000 0000 0000 0000 0000 07c5 a82e
000000a0: 02b4 6f38 1eee 3432 8a55 0d2d 2fb3 f034
000000b0: 600d 4538 71d6 ed32 b038 9c38 9ea9 802e
000000c0: 9763 702f ed7c 692b b8f9 d015 0000 0000
000000d0: 0000 0000 0000 0000 74ad be2a 5d69 b72e
000000e0: 39e8 072f 0dae 622e 0000 0000 0000 0000
000000f0: 0000 0000 0000 0000 a677 b82a 3abd 9e2b
00000100: f3ce 6d2f cf1f 5e2e 0000 0000 0000 0000
00000110: 0000 0000 0000 0000 ac6c e92a 2b59 ea2e
00000120: 2578 082f 854c 7a2e 8a58 981c 0000 0000
00000130: 0000 0000 0000 0000 0c52 012b 2e72 5528
00000140: b0ad 742f 466f 652e 0000 0000 0000 0000
00000150: 0000 0000 0000 0000 c098 0f2a ca3c 8130
00000160: d62d e72d a9b0 7604 e7ab ab30 8d85 c733
00000170: 45f5 792e 615b 2c34 4be2 1e31 026b 3b31
00000180: bd46 9f31 f9a8 e52d 0000 0000 0000 0000
00000190: 0000 0000 9702 d62d ac72 0b31 d2b9 8231
000001a0: af41 de31 0000 0000 0000 0000 0000 0000
000001b0: 0000 0000 7970 772d 0839 2031 0124 af31
000001c0: f3a9 8231 0000 0000 0000 0000 0000 0000
000001d0: 0000 0000 1e3b be2d c4eb b030 f377 5531
000001e0: 4f29 1032 3cd2 f02d 0000 0000 0000 0000
000001f0: 0000 0000 960b 162d 8521 fa30 5cee de31
00000200: 127b 8631 0000 0000 0000 0000 0000 0000
00000210: 0000 0000 85be de2d b43e 4838 7a46 6230
00000220: f19e de2b 85e0 1f33 357a 9436 7d37 3a31
00000230: bb31 dc36 2013 8131 cba3 0a32 327e 3632
00000240: 3f29 d72e 0000 0000 0000 0000 0000 0000
00000250: c90e 4d2e 1818 5431 2e48 e231 f08b 7532
00000260: 0000 0000 0000 0000 0000 0000 0000 0000
00000270: 0fa2 f32d 78f8 4131 0664 ee31 4640 3632
00000280: 0000 0000 0000 0000 0000 0000 0000 0000
00000290: e47f e62d 08ce 0e31 9b56 0f32 0459 5132
000002a0: 308a 672b 0000 0000 0000 0000 0000 0000
000002b0: 3ef5 aa2d 49c2 3031 4f0f 3a32 1d60 3632
000002c0: 0000 0000 0000 0000 0000 0000 0000 0000
000002d0: b5c0 d32d d13e f038 f2cc b530 a4a8 a12d
000002e0: a4a5 b933 b43c f136 1993 9a31 3733 2137
000002f0: 5a08 7c31 6340 1132 0b8b 5732 bcb0 2a2f
00000300: 0000 0000 0000 0000 0000 0000 3399 362e
00000310: ee50 6a31 cebc 0532 c809 8632 0000 0000
00000320: 0000 0000 0000 0000 0000 0000 c5f3 0e2e
00000330: 796f 9f31 e859 2632 8f88 4332 0000 0000
00000340: 0000 0000 0000 0000 0000 0000 975a 892e
00000350: 6990 6831 2676 2932 b0d2 5a32 3032 3e2e
00000360: 0000 0000 0000 0000 0000 0000 18e1 002e
00000370: 912a a531 6d89 4f32 ee6b 5432 0000 0000
00000380: 0000 0000 0000 0000 0000 0000 1d95 562e
00000390: 1219 e738 c0b7 0131 a2c7 dc2d 693c ea33
000003a0: 6e30 1537 15e5 bf31 7f0c 4e37 e14b 072f
000003b0: c12b 2a2f bc1b eb2d e6b0 9522 0000 0000
000003c0: 0000 0000 0000 0000 2c69 5d2b 6a37 d72e
000003d0: d9ad c82e e71b 222f 0000 0000 0000 0000
000003e0: 0000 0000 0000 0000 5000 d92a c42a 3d2d
000003f0: 2264 4c2f 9f97 0a2f 0000 0000 0000 0000

exp_avg f4 [10]
9.776513e-05 -1.0641891e-06 -7.182686e-05 4.9688464e-05 2.784551e-05 1.9088398e-05 -0.00012904385 -0.000110463734
-2.5026538e-06 -4.446247e-05
00000000: 4107 cd38 42d5 8eb5 c0a1 96b8 9568 5038
00000010: c795 e937 0620 a037 f24f 07b9 c4a8 e7b8
00000020: 44f3 27b6 377d 3ab8

exp_avg_sq f4 [10]
1.15292195e-07 2.3670924e-10 1.1287237e-08 1.8730606e-08 2.324598e-08 2.750505e-10 1.0991519e-08 4.0176268e-08
2.428411e-12 1.4348475e-08
00000000: 8e96 f733 dd21 822f cbe9 4132 0ae5 a032
00000010: 73ae c732 eb35 972f 36d5 3c32 468e 2c33
00000020: 5de2 2a2c 4381 7632

exp_avg f4 [10, 10]
0.0010541826 -1.8866403e-05 -0.00023695843 0.00016711438 -9.187737e-05 7.638523e-06 1.4052665e-05 0.000576902
3.294212e-07 8.776411e-05 -0.002457248 8.916188e-06 0.00153812 0.0006761286 0.0011921667 6.5404936e-05
8.647234e-05 -0.000772717 2.4416572e-06 0.002042388 0.00022266693 -5.8331007e-06 0.0012106394 0.0005026057
0.0008662667 2.9797913e-05 -7.67316e-05 -6.577417e-05 1.3140202e-06 0.0015037485 0.00020032142 9.857924e-06
-0.00035078882 -0.000110889305 -0.00033863762 -2.0398702e-06 -2.4009856e-05 5.4310585e-05 -2.4229345e-07 -0.0005317552
-0.0010714678 3.214211e-06 -0.00071095506 -0.00030401736 -0.00046226266 -2.7189355e-05 0.00021045521 -0.00024158141
-9.780321e-07 -0.0008648232 0.0018595778 -1.4226559e-06 -0.0009336381 -0.00035165634 -0.00076279294 -2.9162973e-05
-0.000110574496 0.00060076156 -1.2211979e-06 -0.001247776 -0.0041565965 1.9295767e-05 0.0015034341 0.0005501212
0.0011519261 5.0631657e-05 0.00022606018 -0.0014912371 2.03525e-06 0.0018034249 0.0032609694 -5.7216068e-05
-0.002561204 -0.0009948489 -0.0015467671 -9.921479e-05 5.44607e-05 0.0012765256 -3.102246e-06 -0.0027049633
-6.4819124e-06 1.4281154e-07 0.00010609937 2.6964452e-05 6.5193766e-05 1.3285981e-07 7.879899e-08 -4.420654e-06
4.027589e-09 0.000113688286 0.00046538562 -1.1193767e-05 -0.0002472855 7.956954e-05 -3.066744e-05 2.7312784e-05
2.2615845e-05 0.00046501294 1.1406082e-06 -4.311238e-05
00000000: 802c 8a3a 4b43 9eb7 0b78 78b9 6d3b 2f39
00000010: 4aae c0b8 3527 0037 bdc3 6b37 3d3b 173a
00000020: 4edb b034 ff0d b838 c809 21bb bc96 1537
00000030: be9a c93a 393e 313a 7a42 9c3a 022a 8938
00000040: 7c58 b538 2990 4aba 5adb 2336 96d9 053b
00000050: b37b 6939 f4b9 c3b6 51ae 9e3a 4cc1 033a
00000060: 2d16 633a 88f6 f937 f7ea a0b8 3df0 89b8
00000070: 645d b035 6d19 c53a 5f0d 5239 7663 2537
00000080: 14ea b7b9 3e8d e8b8 2c8b b1b9 b4e4 08b6
00000090: c668 c9b7 8ccb 6338 8f14 82b4 7d65 0bba
000000a0: 7e70 8cba b9b3 5736 635f 3aba 8564 9fb9
000000b0: d85b f2b9 b214 e4b7 a4ad 5c39 0451 7db9
000000c0: ed44 83b5 4db5 62ba 14bd f33a 16f2 beb5
000000d0: 64bf 74ba 845e b8b9 2bf6 47ba 02a3 f4b7
000000e0: 3be4 e7b8 6d7c 1d3a 0ae8 a3b5 6a8c a3ba
000000f0: 0f34 88bb 58dd a137 e10e c53a 0236 103a
00000100: 3afc 963a 545d 5438 910a 6d39 9d75 c3ba
00000110: 5495 0836 e660 ec3a fdb5 553b 49fb 6fb8
00000120: dfd9 27bb 9765 82ba e4bc caba 8911 d0b8
00000130: bb6c 6438 1751 a73a 2e30 50b6 c145 31bb
00000140: 347f d9b6 bd57 1934 aa81 de38 b831 e237
00000150: a3b8 8838 3aa8 0e34 3438 a933 2155 94b6
00000160: 0c63 8a31 ef6b ee38 00ff f339 ddcc 3bb7
00000170: 19a6 81b9 92de a638 eaa0 00b8 c21d e537
00000180: 28b7 bd37 fbcc f339 0017 9935 91d3 34b8

exp_avg_sq f4 [10, 10]
8.661094e-06 1.9327415e-09 5.571261e-07 2.8144076e-08 1.3680503e-07 4.0862256e-09 8.593924e-09 1.7917007e-06
4.8409597e-12 3.928452e-07 4.233915e-06 8.192703e-10 2.8683335e-06 2.2618121e-07 9.2414524e-07 1.3692337e-09
3.852854e-09 7.367134e-07 1.6662261e-12 2.7166996e-06 5.081771e-06 9.320705e-10 7.434211e-06 5.5018904e-07
2.3992561e-06 1.9096875e-09 6.2631393e-09 7.885387e-07 2.1137111e-12 6.8555887e-06 8.4148405e-07 1.5239794e-10
1.1807139e-06 8.38224e-08 3.7399278e-07 3.5033923e-10 6.6181804e-10 1.2124583e-07 3.3266968e-13 1.1105126e-06
1.1182978e-05 2.3663111e-09 4.899722e-06 4.0523693e-07 1.5508966e-06 5.5226397e-09 2.345505e-08 2.0867049e-06
5.837376e-12 4.570807e-06 1.7880088e-06 3.102339e-10 1.1305988e-06 8.492761e-08 3.4540034e-07 6.378744e-10
2.992087e-09 2.9183227e-07 7.6060154e-13 1.035085e-06 6.0394527e-06 1.2326336e-09 2.3162918e-06 2.0046181e-07
7.236679e-07 2.4643512e-09 1.2196921e-08 1.1157648e-06 2.699842e-12 2.1280819e-06 6.7674696e-06 1.5623269e-09
3.9564293e-06 3.4419978e-07 1.382679e-06 4.256777e-09 9.12078e-09 1.524724e-06 3.3975897e-12 3.817967e-06
4.072221e-10 4.0018028e-14 6.3337113e-09 4.677061e-10 2.2555353e-09 9.2137276e-14 1.4433866e-13 3.8171778e-11
1.4867321e-16 6.3501586e-09 1.1487807e-05 2.7428808e-09 5.5320246e-08 1.2080547e-08 6.383668e-09 5.895891e-09
1.1467014e-08 2.6272012e-06 6.8998522e-12 3.0920915e-09
00000000: 1e4f 1137 26d1 0431 6a8d 1535 7ac1 f132
00000010: aee4 1234 d266 8c31 7aa4 1332 5e7a f035
00000020: 7d53 aa2c 3ce8 d234 0e11 8e36 0633 6130
00000030: 987d 4036 38dc 7234 c712 7835 a12f bc30
00000040: 1062 8431 8fc2 4535 1f80 ea2b 8b50 3636
00000050: 1584 aa36 511a 8030 6373 f936 b4b0 1335
00000060: e802 2136 943b 0331 2833 d731 f8ab 5335
00000070: 3cbd 142c 0f09 e636 58e2 6135 3590 272f
00000080: 0579 9e35 da01 b433 2dc9 c834 dd99 c02f
00000090: 4eeb 3530 cd2f 0234 c146 bb2a ec0c 9535
000000a0: 869e 3b37 969c 2231 4b68 a436 578f d934
000000b0: 6728 d035 a7c1 bd31 337a c932 5109 0c36
000000c0: 6962 cd2c ef5e 9936 84fb ef35 8a8d aa2f
000000d0: 14bf 9735 7361 b633 766f b934 6c56 2f30
000000e0: 5a9d 4d31 1fad 9c34 1e17 562b 40ed 8a35
000000f0: 81a6 ca36 7069 a930 9771 1b36 863e 5734
00000100: 1442 4235 5359 2931 a08a 5132 63c1 9535
00000110: 08fc 3d2c 2bd0 0e36 1f14 e336 7eb9 d630
00000120: 78c1 8436 75ca b834 7d94 b935 0243 9231
00000130: 9db1 1c32 1ea5 cc35 8915 6f2c 161c 8036
00000140: 6adf df2f a539 3429 ea9f d931 e48f 0030
00000150: ccff 1a31 8679 cf29 c982 222a 9ae1 272e
00000160: 9668 2b25 9630 da31 c1bb 4037 457d 3c31
00000170: 4199 6d33 cf8a 4f32 5657 db31 ce94 ca31
00000180: 7600 4532 f94e 3036 58c4 f22c a67c 5431

exp_avg f4 [10]
0.00011888093 -0.0002894312 5.6537818e-05 1.1075217e-05 -0.00015834214 0.00021736178 -0.00051402726 0.0003715131
4.411553e-06 2.1280513e-05
00000000: b74f f938 ccbe 97b9 0523 6d38 b2cf 3937
00000010: a508 26b9 9ceb 6339 c9bf 06ba a5c7 c239
00000020: f406 9436 8e83 b237

exp_avg_sq f4 [10]
1.7875354e-07 1.0515359e-07 1.4633513e-07 2.5521068e-08 2.3099983e-07 4.4356124e-08 1.237583e-07 1.16615695e-07
3.6243442e-11 2.2139757e-07
00000000: 66ef 3f34 ccd0 e133 4b20 1d34 6c39 db32
00000010: c008 7834 1382 3e33 6ce2 0434 286e fa33
00000020: 7d66 1f2e 4db9 6d34

exp_avg f4 [3, 10]
0.022617854 -0.003923925 -0.012840654 -0.012245694 0.010707925 0.007401213 0.0035957866 -0.004689407
6.596004e-05 0.011783153 -0.022091437 0.0041250153 0.013092122 0.013843378 -0.01102223 -0.004856651
-0.003205363 0.007601037 -8.691528e-05 -0.010479872 -0.00052640977 -0.0002010904 -0.00025146588 -0.0015976847
0.00031430615 -0.002544561 -0.00039042352 -0.002911627 2.0955293e-05 -0.0013032812
00000000: 1449 b93c 4594 80bb 9b61 52bc 2aa2 48bc
00000010: 4b70 2f3c e085 f23b 4aa7 6b3b 99a9 99bb
00000020: 0754 8a38 200e 413c 1af9 b4bc 232b 873b
00000030: 5780 563c 56cf 623c 9596 34bc 8b24 9fbb
00000040: 1111 52bb 1f12 f93b 4946 b6b8 c5b3 2bbc
00000050: c3fe 09ba cbdb 52b9 2ed7 83b9 6769 d1ba
00000060: 75c9 a439 a6c2 26bb c2b1 ccb9 ffd0 3ebb
00000070: 26c9 af37 dcd2 aaba

exp_avg_sq f4 [3, 10]
0.00017933399 0.000117910866 0.000101509715 7.928597e-05 6.365912e-05 0.00018422001 4.1423536e-06 0.0002980966
1.044139e-08 5.1476407e-05 0.00017214345 0.00012358777 8.745397e-05 7.248777e-05 7.5246026e-05 0.0001840125
3.866425e-06 0.00029047238 1.1325071e-08 4.3511063e-05 0.0001787788 0.00010606222 6.4390275e-05 5.144471e-05
7.484483e-05 0.00019489524 4.300811e-06 0.00026839998 8.016462e-09 4.903585e-05
00000000: 9a0b 3c39 ea46 f738 9de1 d438 5546 a638
00000010: bb80 8538 2f2b 4139 8cfe 8a36 d949 9c39
00000020: b861 3332 5fe8 5738 6881 3439 5797 0139
00000030: 7e67 b738 9304 9838 67cd 9d38 7bf3 4039
00000040: 56bc 8136 8b4a 9839 3090 4232 a67f 3638
00000050: 9276 3b39 b96d de38 4409 8738 56c6 5738
00000060: 03f6 9c38 cb5c 4c39 af4f 9036 09b8 8c39
00000070: c6b8 0932 d8ab 4d38

exp_avg f4 [3]
0.0050757625 -0.004266109 -0.00080965273
00000000: 9552 a63b b7ca 8bbb e03e 54ba

exp_avg_sq f4 [3]
1.949002e-05 2.1000626e-05 2.1685808e-05
00000000: 807e a337 802a b037 ebe9 b537

exp_avg f4 [3, 10]
-0.0041761044 0.004662146 0.007942909 0.006164279 0.00089343125 0.0044009513 -0.0002270543 0.009223368
-4.068087e-06 -0.002149899 0.00844675 -0.0006609422 -0.006168352 -0.004675974 0.003916926 0.0011972019
0.0007027914 -0.0032460727 7.0925153e-06 0.003448163 -0.0042706425 -0.0040012025 -0.0017745559 -0.001488303
-0.004810358 -0.0055981544 -0.00047573657 -0.0059772935 -3.0244323e-06 -0.0012982656
00000000: b4d7 88bb eac4 983b fa22 023c b8fd c93b
00000010: 2835 6a3a db35 903b 6d15 6eb9 9c1d 173c
00000020: 9a80 88b6 52e5 0cbb 3d64 0a3c 1543 2dba
00000030: e31f cabb ea38 99bb 8f59 803b 6eeb 9c3a
00000040: 883b 383a 10bc 54bb 3efc ed36 93fa 613b
00000050: bff0 8bbb 851c 83bb 3798 e8ba 2913 c3ba
00000060: 35a0 9dbb b970 b7bb 486c f9b9 2cdd c3bb
00000070: 5af7 4ab6 912a aaba

exp_avg_sq f4 [3, 10]
0.0001764764 7.4442025e-05 5.7104906e-05 4.374947e-05 5.5628123e-05 0.00012968146 3.4880104e-06 0.00017875378
4.7931157e-09 4.458165e-05 0.00019329981 8.162663e-05 6.294612e-05 4.8962276e-05 5.584392e-05 0.00014560216
3.817643e-06 0.00019843012 6.2206813e-09 4.991751e-05 0.00021056912 8.198072e-05 5.927626e-05 4.3126915e-05
7.3939394e-05 0.00016616331 4.192372e-06 0.00020773297 6.029874e-09 5.0768067e-05
00000000: 860c 3939 c21d 9c38 ed83 6f38 a37f 3738
00000010: 3e52 6938 1afb 0739 9013 6a36 da6f 3b39
00000020: b1b0 a431 2ffd 3a38 86b0 4a39 f72e ab38
00000030: f101 8438 d85c 4d38 f439 6a38 c8ac 1839
00000040: 4e19 8036 ae11 5039 b1bd d531 855e 5138
00000050: 38cc 5c39 10ed ab38 669f 7838 2ce3 3438
00000060: e90f 9b38 203c 2e39 34ac 8c36 e5d2 5939
00000070: 552f cf31 ccef 5438

exp_avg f4 [3]
-0.0003110675 0.0022951243 -0.0019840563
00000000: c616 a3b9 cc69 163b f106 02bb

exp_avg_sq f4 [3]
1.612928e-05 1.89756e-05 2.1788795e-05
00000000: 5d4d 8737 ca2d 9f37 15c7 b637

exp_avg f4 [10, 47]
0.0021427684 -0.00086951215 -0.0048130746 9.742033e-05 0.0 0.0 0.0 0.00020945205
0.0011728253 -0.0015113213 -0.0031039019 0.0 0.0 0.0 0.0 0.00011391969
0.0036042237 -0.0006103367 -0.0064362846 0.0 0.0 0.0 0.0 0.00022772985
-5.6590547e-05 -0.0010157924 -0.0024317328 6.171812e-05 0.0 0.0 0.0 2.0133799e-05
0.0009374127 0.0009633893 -0.0053432 0.0 0.0 0.0 0.0 -3.414754e-05
-0.05325394 -0.00024162671 -3.972194e-05 0.019225016 -0.060860593 -0.0016858603 -0.08328575 0.00014553024
-0.002619657 -0.0007774796 -3.944662e-05 0.0 0.0 0.0 -4.805914e-05 -0.0020940923
-0.00023470867 -0.00096225255 0.0 0.0 0.0 0.0 -0.00015468987 -0.0014921732
-0.0023623032 0.0005634232 0.0 0.0 0.0 0.0 -0.00013312513 -0.0018132424
0.00022821236 -0.0016778761 -2.8147266e-05 0.0 0.0 0.0 -0.00013815059 -0.0012938564
-0.0033987113 0.001401514 0.0 0.0 0.0 0.0 -0.0002296979 -0.0006292413
0.00027768608 5.0585013e-06 -0.0038192437 -0.06853536 -0.0016127506 -0.08393421 -0.0015415973 -0.004019959
-0.0009620977 -5.231316e-05 0.0 0.0 0.0 -0.00012922124 -0.0027448118 -0.0009696367
-0.0028615184 0.0 0.0 0.0 0.0 -0.00020124893 -0.0034380357 -0.0033546467
0.00021671593 0.0 0.0 0.0 0.0 -0.00037406737 -0.0013044655 -0.00056851556
-0.004616875 -8.611043e-05 0.0 0.0 0.0 -0.0001747233 -0.0018865436 -0.0043900623
-0.00029936054 0.0 0.0 0.0 0.0 -0.00033560925 -0.10038216 0.0012854235
-3.9603066e-07 -0.015207006 -0.13261609 -0.0032222162 -0.17746983 0.005413644 0.0058623445 -0.0033587895
-2.6199894e-05 0.0 0.0 0.0 0.00052904646 0.0021122438 0.0041092956 0.0016694596
0.0 0.0 0.0 0.0 0.00018822409 -0.002025751 0.006471525 0.0034452244
0.0 0.0 0.0 0.0 0.0003226532 0.0018225713 0.00429898 0.0018188002
-4.9352104e-05 0.0 0.0 0.0 0.00013819673 -0.0019396547 0.0059039486 0.0039267046
0.0 0.0 0.0 0.0 -6.9424656e-05 -0.11729618 -0.0016520533 -2.3030296e-07
-0.016263109 0.16151547 0.0038665896 0.20648535 0.003633179 0.011235913 0.0022200996 -7.2910414e-05
0.0 0.0 0.0 0.00043207052 0.0042957617 0.006136094 0.0065844273 0.0
0.0 0.0 0.0 0.00034823033 -0.0028198108 0.011513965 0.008322128 0.0
0.0 0.0 0.0 0.00030990556 0.0045414837 0.0047648214 0.0077492385 -3.9260227e-05
0.0 0.0 0.0 0.00036283574 -0.0012826063 0.010200001 0.008098887 0.0
0.0 0.0 0.0 0.00023213723 0.06955773 -0.0025520397 2.7061024e-05 -0.031989392
0.33715987 0.008337349 0.4398932 -0.00033145444 -0.00065826334 -3.438013e-05 3.469222e-08 0.0
0.0 0.0 -3.8725993e-05 -0.0003875109 -0.00025268938 -0.00038386288 0.0 0.0
0.0 0.0 -3.0427695e-05 4.2380432e-07 -0.0006856766 -0.00033881038 0.0 0.0
00000000: b06d 0c3b f9ef 63ba ffb6 9dbb 244e cc38
00000010: 0000 0000 0000 0000 0000 0000 5ba0 5b39
00000020: 7db9 993a 8717 c6ba d56a 4bbb 0000 0000
00000030: 0000 0000 0000 0000 0000 0000 2be8 ee38
00000040: d734 6c3b 01ff 1fba 78e7 d2bb 0000 0000
00000050: 0000 0000 0000 0000 0000 0000 c4ca 6e39
00000060: a35b 6db8 5624 85ba b55d 1fbb aa6e 8138
00000070: 0000 0000 0000 0000 0000 0000 01e5 a837
00000080: b4bc 753a f68b 7c3a 0316 afbb 0000 0000
00000090: 0000 0000 0000 0000 0000 0000 a439 0fb8
000000a0: ce20 5abd 2d5d 7db9 1c9b 26b8 c87d 9d3c
000000b0: f548 79bd 16f8 dcba b891 aabd 7a99 1839
000000c0: 8dae 2bbb c6cf 4bba 7c73 25b8 0000 0000
000000d0: 0000 0000 0000 0000 1c93 49b8 0a3d 09bb
000000e0: 211c 76b9 ad3f 7cba 0000 0000 0000 0000
000000f0: 0000 0000 0000 0000 3f34 22b9 0695 c3ba
00000100: dfd0 1abb b1b2 133a 0000 0000 0000 0000
00000110: 0000 0000 0000 0000 8197 0bb9 52aa edba
00000120: 4a4c 6f39 2eec dbba cb1d ecb7 0000 0000
00000130: 0000 0000 0000 0000 84dc 10b9 9e96 a9ba
00000140: eabc 5ebb 02b3 b73a 0000 0000 0000 0000
00000150: 0000 0000 0000 0000 0fdb 70b9 abf3 24ba
00000160: 6596 9139 32bc a936 474c 7abb 445c 8cbd
00000170: ee62 d3ba b3e5 abbd 6c0f caba dcb9 83bb
00000180: 4935 7cba d46a 5bb8 0000 0000 0000 0000
00000190: 0000 0000 907f 07b9 4de2 33bb 382f 7eba
000001a0: 5088 3bbb 0000 0000 0000 0000 0000 0000
000001b0: 0000 0000 5906 53b9 ab50 61bb a2d9 5bbb
000001c0: 3d3e 6339 0000 0000 0000 0000 0000 0000
000001d0: 0000 0000 791e c4b9 99fa aaba 6f08 15ba
000001e0: 2849 97bb 2f96 b4b8 0000 0000 0000 0000
000001f0: 0000 0000 ee35 37b9 e645 f7ba 83da 8fbb
00000200: 7ef3 9cb9 0000 0000 0000 0000 0000 0000
00000210: 0000 0000 b6f4 afb9 2995 cdbd a87b a83a
00000220: 0a9e d4b4 ce26 79bc 83cc 07be d12b 53bb
00000230: a7ba 35be f064 b13b e918 c03b 231f 5cbb
00000240: d8c7 dbb7 0000 0000 0000 0000 0000 0000
00000250: b5af 0a3a 926d 0a3b 45a7 863b c5d1 da3a
00000260: 0000 0000 0000 0000 0000 0000 0000 0000
00000270: 055e 4539 76c2 04bb 160f d43b 46c9 613b
00000280: 0000 0000 0000 0000 0000 0000 0000 0000
00000290: c829 a939 58e3 ee3a 75de 8c3b cf64 ee3a
000002a0: 6bff 4eb8 0000 0000 0000 0000 0000 0000
000002b0: e7e8 1039 033c feba e975 c13b 96ab 803b
000002c0: 0000 0000 0000 0000 0000 0000 0000 0000
000002d0: 1498 91b8 fb38 f0bd b689 d8ba 3249 77b4
000002e0: 363a 85bc 5064 253e 9c66 7d3b e570 533e
000002f0: a11a 6e3b d616 383c 177f 113b 7be7 98b8
00000300: 0000 0000 0000 0000 0000 0000 8687 e239
00000310: 76c3 8c3b 4a11 c93b 2ec2 d73b 0000 0000
00000320: 0000 0000 0000 0000 0000 0000 af92 b639
00000330: 93cc 38bb 12a5 3c3c 8959 083c 0000 0000
00000340: 0000 0000 0000 0000 0000 0000 d27a a239
00000350: bad0 943b 3822 9c3b 53ed fd3b 59ab 24b8
00000360: 0000 0000 0000 0000 0000 0000 fd3a be39
00000370: 201d a8ba e81d 273c 32b1 043c 0000 0000
00000380: 0000 0000 0000 0000 0000 0000 dd69 7339
00000390: 4874 8e3d 1f40 27bb 1b01 e337 4f07 03bd
000003a0: 38a0 ac3e 6099 083c ae39 e13e 10c7 adb9
000003b0: 4e8f 2cba 6233 10b8 8000 1533 0000 0000
000003c0: 0000 0000 0000 0000 b86d 22b8 d52a cbb9
000003d0: 657b 84b9 3441 c9b9 0000 0000 0000 0000
000003e0: 0000 0000 0000 0000 fa3e ffb7 3987 e334
000003f0: fabe 33ba 5ca2 b1b9 0000 0000 0000 0000

exp_avg_sq f4 [10, 47]
4.153506e-07 5.318639e-07 1.2016575e-06 3.8270875e-09 0.0 0.0 0.0 5.6808527e-09
2.5840575e-07 3.9644377e-07 1.1513364e-06 0.0 0.0 0.0 0.0 2.5478728e-09
1.0005629e-06 7.064607e-07 1.350434e-06 0.0 0.0 0.0 0.0 8.104873e-09
1.2536563e-07 3.712879e-07 1.2667911e-06 1.8899151e-09 0.0 0.0 0.0 1.5518232e-09
3.3749092e-07 1.2281124e-06 1.0843554e-06 0.0 0.0 0.0 0.0 4.1459733e-09
0.012058716 6.959924e-08 4.0822543e-10 2.829351e-05 0.0011153052 7.024503e-07 0.001676202 7.9125364e-08
6.3399256e-07 4.26014e-07 9.1070446e-10 0.0 0.0 0.0 8.369047e-10 3.395369e-07
2.543396e-07 4.9412927e-07 0.0 0.0 0.0 0.0 1.5099834e-09 1.7224781e-07
6.7140655e-07 3.2793832e-07 0.0 0.0 0.0 0.0 3.9678025e-09 3.11448e-07
2.5982683e-07 5.520133e-07 5.958166e-10 0.0 0.0 0.0 1.3221791e-09 1.4789565e-07
9.692484e-07 3.255286e-07 0.0 0.0 0.0 0.0 3.4524377e-09 0.0011980265
8.903001e-08 1.580762e-11 7.39775e-06 0.00075048476 4.344277e-07 0.0012078396 4.776337e-07 1.7164496e-06
1.9304878e-06 9.694118e-10 0.0 0.0 0.0 6.53955e-09 6.824433e-07 8.237248e-07
2.3941973e-06 0.0 0.0 0.0 0.0 4.3338972e-09 8.4235285e-07 2.1535734e-06
1.4355815e-06 0.0 0.0 0.0 0.0 1.22581225e-08 4.3220828e-07 6.5429566e-07
3.2493117e-06 4.3903277e-09 0.0 0.0 0.0 4.1385935e-09 4.8471446e-07 2.847532e-06
1.0380944e-06 0.0 0.0 0.0 0.0 1.2776137e-08 0.0060687615 1.09474094e-07
3.6010098e-14 1.4964187e-05 0.003654224 2.177621e-06 0.0057960046 5.9432537e-06 2.3269544e-05 3.560434e-06
7.7479123e-10 0.0 0.0 0.0 6.5405835e-08 7.1618356e-06 8.728755e-06 1.1001214e-05
0.0 0.0 0.0 0.0 3.2973038e-08 9.263474e-07 2.9707906e-05 6.910058e-06
0.0 0.0 0.0 0.0 8.276956e-08 7.134416e-06 6.151511e-06 1.5791706e-05
1.8481258e-09 0.0 0.0 0.0 3.055357e-08 3.7972043e-07 3.327956e-05 6.3323737e-06
0.0 0.0 0.0 0.0 3.4450935e-08 0.0021286565 1.0361001e-06 1.8893508e-13
3.0845353e-05 0.026298372 1.5475342e-05 0.044014044 2.0695347e-06 1.3535458e-05 5.1805756e-07 2.1670505e-09
0.0 0.0 0.0 2.1264569e-08 3.8076148e-06 4.3235214e-06 3.9227866e-06 0.0
0.0 0.0 0.0 2.0197112e-08 4.3876017e-07 1.4833923e-05 3.8740486e-06 0.0
0.0 0.0 0.0 1.5627148e-08 4.3537793e-06 2.5949212e-06 5.3458834e-06 8.0791646e-10
0.0 0.0 0.0 2.0181124e-08 2.0522162e-07 1.3304007e-05 3.9323527e-06 0.0
0.0 0.0 0.0 6.7523813e-09 0.005089308 9.4991276e-07 1.8879849e-10 8.515475e-05
0.009335221 5.592044e-06 0.015604291 1.0330439e-08 3.792359e-08 2.6680985e-10 3.5545547e-16 0.0
0.0 0.0 1.1036622e-10 1.4140923e-08 9.143627e-09 1.459863e-08 0.0 0.0
0.0 0.0 8.189134e-11 1.8220708e-11 3.99216e-08 1.1132037e-08 0.0 0.0
00000000: 5afd de34 69c5 0e35 a348 a135 6b7f 8331
00000010: 0000 0000 0000 0000 0000 0000 4f31 c331
00000020: 04bb 8a34 d1d6 d434 9e87 9a35 0000 0000
00000030: 0000 0000 0000 0000 0000 0000 a716 2f31
00000040: 144b 8635 9ca3 3d35 8f40 b535 0000 0000
00000050: 0000 0000 0000 0000 0000 0000 9c3d 0b32
00000060: 3e9c 0634 6c55 c734 9c06 aa35 bddf 0131
00000070: 0000 0000 0000 0000 0000 0000 ed47 d530
00000080: 6630 b534 9fd5 a435 2b8a 9135 0000 0000
00000090: 0000 0000 0000 0000 0000 0000 5e74 8e31
000000a0: ec91 453c 9676 9533 9f6c e02f da57 ed37
000000b0: 6f2f 923a 0490 3c35 02b4 db3a a1eb a933
000000c0: a32f 2a35 ebb6 e434 2155 7a30 0000 0000
000000d0: 0000 0000 0000 0000 ef0b 6630 9949 b634
000000e0: 2b8c 8834 4ea4 0435 0000 0000 0000 0000
000000f0: 0000 0000 0000 0000 d187 cf30 1ef3 3834
00000100: b53a 3435 800f b034 0000 0000 0000 0000
00000110: 0000 0000 0000 0000 2955 8831 1635 a734
00000120: 547e 8b34 112e 1435 dec6 2330 0000 0000
00000130: 0000 0000 0000 0000 0bb8 b530 3fcd 1e34
00000140: 1f17 8235 4fc4 ae34 0000 0000 0000 0000
00000150: 0000 0000 0000 0000 ed3f 6d31 1907 9d3a
00000160: c430 bf33 990b 8b2d 303a f836 2ebc 443a
00000170: 4a3b e934 5f50 9e3a bd36 0035 c260 e635
00000180: 878d 0136 253c 8530 0000 0000 0000 0000
00000190: 0000 0000 7db2 e031 2531 3735 f01d 5d35
000001a0: ffab 2036 0000 0000 0000 0000 0000 0000
000001b0: 0000 0000 5de9 9431 0c1e 6235 1c86 1036
000001c0: 34ae c035 0000 0000 0000 0000 0000 0000
000001d0: 0000 0000 cb97 5232 410a e834 dba2 2f35
000001e0: c00e 5a36 bbd9 9631 0000 0000 0000 0000
000001f0: 0000 0000 7433 8e31 531d 0235 3a18 3f36
00000200: a754 8b35 0000 0000 0000 0000 0000 0000
00000210: 0000 0000 0b7e 5b32 76dc c63b 0518 eb33
00000220: d12c 2229 b20e 7b37 b57b 6f3b 3e23 1236
00000230: 69ec bd3b 296c c736 f732 c337 caef 6e36
00000240: 16f9 5430 0000 0000 0000 0000 0000 0000
00000250: 3d75 8c33 b34f f036 b871 1237 db91 3837
00000260: 0000 0000 0000 0000 0000 0000 0000 0000
00000270: 3d9e 0d33 1caa 7835 3e35 f937 f2dc e736
00000280: 0000 0000 0000 0000 0000 0000 0000 0000
00000290: 0cbf b133 2b64 ef36 1469 ce36 6e78 8437
000002a0: 2501 fe30 0000 0000 0000 0000 0000 0000
000002b0: 013a 0333 61dc cb34 a895 0b38 ad7a d436
000002c0: 0000 0000 0000 0000 0000 0000 0000 0000
000002d0: 34f7 1333 ee80 0b3b 2110 8b35 d4b8 542a
000002e0: f25f 0138 af6f d73c 0bd1 8137 1248 343d
000002f0: 56e2 0a36 5916 6337 a510 0b35 28eb 1431
00000300: 0000 0000 0000 0000 0000 0000 48a9 b632
00000310: 5386 7f36 c412 9136 7ba0 8336 0000 0000
00000320: 0000 0000 0000 0000 0000 0000 eb7d ad32
00000330: bd8e eb34 37df 7837 d3fd 8136 0000 0000
00000340: 0000 0000 0000 0000 0000 0000 763c 8632
00000350: ae16 9236 6824 2e36 ca60 b336 1114 5e30
00000360: 0000 0000 0000 0000 0000 0000 c35a ad32
00000370: e45a 5c34 4634 5f37 a7f2 8336 0000 0000
00000380: 0000 0000 0000 0000 0000 0000 9302 e831
00000390: 36c4 a63b 82fd 7e35 0d96 4f2f 1c95 b238
000003a0: c1f2 183c 4ba3 bb36 24a9 7f3c c079 3132
000003b0: 6ee1 2233 26ae 922f f8e7 cc25 0000 0000
000003c0: 0000 0000 0000 0000 a9b2 f22e 70f0 7232
000003d0: 1916 1d32 74cd 7a32 0000 0000 0000 0000
000003e0: 0000 0000 0000 0000 ba14 b42e 6345 a02d
000003f0: 4376 2b33 373f 3f32 0000 0000 0000 0000

exp_avg f4 [10]
-0.0034423978 -0.0032910535 -0.0065759667 0.007890999 0.017016284 -0.0010240632 -0.019940147 0.00028257872
0.0046816217 -0.0002162474
00000000: da99 61bb b7ae 57bb 357b d7bb 4049 013c
00000010: bc65 8b3c dc39 86ba 8559 a3bc 1327 9439
00000020: 4a68 993b 78c0 62b9

exp_avg_sq f4 [10]
2.9247544e-06 1.8093803e-06 9.06964e-06 6.445395e-05 2.3293978e-05 7.613108e-08 5.4228156e-05 5.791349e-06
3.7207985e-06 2.6560795e-07
00000000: e646 4436 d5d9 f235 cf29 1837 732b 8738
00000010: 7067 c337 817d a333 0a73 6338 4f53 c236
00000020: d5b2 7936 e198 8e34

exp_avg f4 [10, 10]
-0.0054347916 0.04006439 0.05895035 0.005517363 0.0476582 -0.0018713016 0.02074918 0.041935164
5.3263093e-06 0.0029064522 -0.0013482997 -0.0136353355 -0.028673742 -0.005323431 -0.03322605 0.00082131353
-0.008468052 -0.02239612 -0.00021025498 -0.0010459147 0.0033881792 -0.09354538 -0.1684571 -0.023027517
-0.17264003 0.004421284 -0.046983704 -0.12830237 0.0003891304 -0.0060730246 0.0039450456 -0.02936368
-0.043338332 -0.0040558646 -0.03516221 0.0013672686 -0.01514315 -0.030851657 9.3610615e-06 -0.0021189249
0.001297189 -0.02944231 -0.056772936 -0.010604029 -0.05187629 0.0016597926 -0.020267382 -0.038388826
-0.0001468202 -0.0027283963 0.0028684766 -0.010123525 0.02579953 0.009152148 -0.0055559212 -0.00036893523
0.0033818162 -0.0049692756 -4.7536323e-05 0.00061520794 -0.025782978 0.0018322149 0.024484493 0.0060389955
-0.023694608 -0.00057781866 0.005061965 -0.008518231 0.00038896984 0.000681983 0.0021116505 -0.04547901
-0.08356046 -0.011909603 -0.07894528 0.0023018 -0.02504024 -0.059883106 6.424766e-05 -0.0034032413
-0.0037719 0.026507026 0.038357954 0.0033958985 0.030488122 -0.0012229288 0.013603766 0.02723835
5.4609573e-06 0.0019075739 -0.05298584 0.0854401 0.1640238 0.020481097 0.047144227 -0.0048050634
0.054290082 0.06601528 -7.28417e-05 0.007915484
00000000: 5616 b2bb 8f1a 243d ec75 713d ffca b43b
00000010: 3f35 433d 7646 f5ba 2ffa a93c 35c4 2b3d
00000020: a6b8 b236 2d7a 3e3b 6eb9 b0ba be66 5fbc
00000030: 32e5 eabc 2d70 aebb 0a18 08bd 6b4d 573a
00000040: 96bd 0abc 1178 b7bc e477 5cb9 1317 89ba
00000050: 370c 5e3b b894 bfbd 0580 2cbe 34a4 bcbc
00000060: 8cc8 30be 6be0 903b fc71 40bd b261 03be
00000070: 3304 cc39 3900 c7bb 7145 813b 1a8c f0bc
00000080: 8983 31bd 0fe7 84bb 4006 10bd ec35 b33a
00000090: fa1a 78bc 9dbc fcbc 740d 1d37 a9dd 0abb
000000a0: 7106 aa3a 0031 f1bc bd8a 68bd 85bc 2dbc
000000b0: 3c7c 54bd 668d d93a c807 a6bc 9a3d 1dbd
000000c0: bff3 19b9 e5ce 32bb 0dfd 3b3b 24dd 25bc
000000d0: 8959 d33c e4f2 153c 720e b6bb a66d c1b9
000000e0: 76a1 5d3b 4ed5 a2bb bd61 47b8 e845 213a
000000f0: d336 d3bc ee26 f03a b493 c83c c4e2 c53b
00000100: 321b c2bc c178 17ba d7de a53b 0d90 0bbc
00000110: a6ee cb39 1bc7 323a 9e63 0a3b 3348 3abd
00000120: bf21 abbd 7f20 43bc 10ae a1bd ccd9 163b
00000130: 3021 cdbc fd47 75bd b3bc 8638 ea08 5fbb
00000140: fb31 77bb 4325 d93c 3b1d 1d3d b98d 5e3b
00000150: 3ac2 f93c ae4a a0ba 55e2 5e3c f622 df3c
00000160: 443d b736 8f07 fa3a ae07 59bd 38fb ae3d
00000170: dbf5 273e f9c7 a73c 4e1a 413d cb73 9dbb
00000180: 475f 5e3d 0533 873d 97c2 98b8 f2af 013c

exp_avg_sq f4 [10, 10]
0.00033638408 0.0004602775 0.0015202588 5.1670235e-05 0.0013278765 7.002015e-07 7.159654e-05 0.0007225134
3.1186886e-07 1.4999957e-06 9.18595e-06 1.0140764e-05 3.79404e-05 1.4041132e-06 4.64406e-05 2.2305743e-08
2.2731344e-06 2.0923568e-05 9.55683e-09 3.6723655e-08 1.7883187e-06 0.00068379473 0.0021678812 4.9119255e-05
0.0023151063 1.3148291e-06 0.00013681776 0.0013074034 1.1724426e-06 2.5264458e-06 0.0001688657 0.00024070729
0.0007933743 2.6712982e-05 0.0006940135 3.6817605e-07 3.754154e-05 0.0003790138 1.6601435e-07 7.8551676e-07
6.0030266e-07 7.1817994e-05 0.00030409565 1.6147027e-05 0.00031259083 2.7593248e-07 3.1672487e-05 0.00015870926
4.2544156e-07 8.0075733e-07 0.0028339226 0.00012021256 0.00013368845 1.1598251e-05 0.009498262 2.3876824e-08
2.6323225e-06 0.0026160185 1.5232155e-07 3.862436e-07 0.00031257718 1.5581194e-05 4.7309943e-05 2.698256e-06
0.00086694636 1.440342e-08 1.0949656e-06 0.00023432588 3.911913e-08 5.3229442e-08 7.476861e-07 0.00019914865
0.00066450564 1.9025656e-05 0.000726714 4.1739602e-07 4.761076e-05 0.0003969747 2.1093223e-07 1.080281e-06
0.00016993866 0.00022198848 0.00073218456 2.5015535e-05 0.00063431513 3.266642e-07 3.352179e-05 0.00034479203
1.4168806e-07 6.9284596e-07 0.0006592608 0.0029790003 0.009907535 0.00035722362 0.008827896 4.4714366e-06
0.0004688277 0.005149136 2.1817461e-06 8.574659e-06
00000000: b55c b039 6651 f139 6c43 c73a 7eb8 5838
00000010: 240c ae3a 7bf5 3b35 1a26 9638 0e67 3d3a
00000020: ee6e a734 7653 c935 5b1d 1a37 4022 2a37
00000030: 3222 1f38 f674 bc35 37c9 4238 d99a bf32
00000040: 278c 1836 0585 af37 622f 2432 16ba 1d33
00000050: 2a06 f035 b040 333a 0313 0e3b 6605 4e38
00000060: 0ab9 173b 2f79 b035 bd76 0f39 2e5d ab3a
00000070: d25c 9d35 028c 2936 8b11 3139 5f66 7c39
00000080: 73fa 4f3a b115 e037 75ee 353a bba9 c534
00000090: ec75 1d38 5fb6 c639 ad41 3234 4ddc 5235
000000a0: 7c24 2135 fe9c 9638 076f 9f39 7a73 8737
000000b0: 3be3 a339 df23 9434 13d8 0438 316b 2639
000000c0: 3e68 e434 a0f3 5635 55b9 393b a01a fc38
000000d0: b82e 0c39 1c96 4237 999e 1b3c b119 cd32
000000e0: f5a6 3036 8271 2b3b d48d 2334 eb5c cf34
000000f0: 66e1 a339 5cb4 8237 aa6e 4638 af13 3536
00000100: c943 633a e972 7732 bbf6 9235 60b5 7539
00000110: f003 2833 649e 6433 99b4 4835 8fd2 5039
00000120: 3832 2e3a 4999 9f37 f380 3e3a 7916 e034
00000130: aab1 4738 0b21 d039 9c7c 6234 2cfe 9035
00000140: 9031 3239 94c5 6839 13f0 3f3a 74d8 d137
00000150: 2b48 263a 6360 af34 bf99 0c38 34c5 b439
00000160: eb22 1834 03fc 3935 3ed2 2c3a 553b 433b
00000170: 3753 223c be49 bb39 e1a2 103c 5909 9636
00000180: fdcc f539 15ba a83b 1d6a 1236 e1db 0f37

exp_avg f4 [10]
0.007095003 -0.003666551 -0.020511514 -0.0052115154 -0.0065888986 0.00116406 0.0014323738 -0.009959767
0.004605408 0.016113378
00000000: 337d e83b 854a 70bb c307 a8bc 5cc5 aabb
00000010: b0e7 d7bb 5f93 983a 7dbe bb3a 4a2e 23bc
00000020: f6e8 963b 3400 843c

exp_avg_sq f4 [10]
2.0363943e-05 5.5972185e-07 3.222368e-05 1.0664246e-05 4.773074e-06 1.3580722e-05 1.4592679e-06 9.935589e-06
9.725411e-06 0.00014115986
00000000: 3cd3 aa37 cb3f 1635 ea27 0738 96ea 3237
00000010: 6528 a036 c2d8 6337 10dc c335 08b1 2637
00000020: 522a 2337 5004 1439
