examples/results/foo/AnimalAI.onnx (onnx, 5421 bytes, 9 tensors)

discrete_action_output_shape f4 [1, 2]
3.0 3.0
00000000: 0000 4040 0000 4040

network_body._body_endoder.seq_layers.0.weight f4 [10, 47]
-0.046173517 -0.023304982 0.21376717 -0.10992234 0.072622426 -0.040046506 -0.0080033 0.12303257
-0.182433 0.12684575 -0.07604738 -0.054564793 0.11670486 -0.062299374 0.31452796 0.012715176
-0.019830907 0.1532783 -0.116140336 0.11996192 -0.08342346 0.17517725 0.15583667 0.12456904
0.18737845 -0.043868728 -0.25481743 -0.17417534 -0.3267575 -0.024614457 -0.30754504 -0.14336962
0.08715861 -0.10923264 0.2571659 -0.041304998 -0.15863618 -0.23252694 -0.09322519 0.20715608
-0.047675237 0.15085708 0.035550937 -0.15369645 0.37808192 0.033574842 -0.0026893776 -0.112629406
0.039024394 -0.1252106 0.028131936 0.06836254 -0.05256482 0.117717855 -0.15850422 0.11154331
0.008905074 0.08879612 0.089336984 0.22158378 0.10045652 0.12020691 0.1377891 0.13054432
-0.006409473 -0.47097102 0.01886281 0.15919293 0.041775476 -0.038738634 0.13951904 -0.059988506
-0.10359015 0.046039343 0.24309057 0.19423841 -0.05095732 -0.03598926 0.061223987 0.025800355
-0.13330802 0.4021764 -0.035838056 0.05027269 0.075559035 0.11487502 0.059700757 -0.32977444
-0.21420696 0.16739553 0.028237315 -0.356205 0.13517231 0.17193107 0.07936948 -0.05252543
0.14455232 0.04598836 0.060450204 -0.15951942 0.17191921 0.0045429925 0.23074701 -0.19291897
0.17050931 0.23057604 0.051320642 -0.05488336 -0.039592933 -0.11385894 -0.18045746 -0.17248194
-0.28539744 0.16678126 0.19870426 0.3109709 -0.19282213 -0.31423646 0.13083395 0.058199577
-0.043963578 -0.010257834 -0.20673712 -0.19077821 -0.21865621 -0.13400283 0.08411833 0.14239529
0.18557906 0.031511087 0.10263364 -0.23041348 -0.1092089 -0.19881436 0.1648769 0.17204696
0.34827462 -0.08078062 0.07682155 0.34025514 -0.12117876 0.037371654 0.13117117 0.0072225616
-0.04567565 -0.1285415 -0.07670528 -0.19274186 0.06864751 0.014697391 0.33853447 -0.1458424
-0.12557937 -0.096198305 -0.09622763 0.046982642 -0.26028645 0.12530436 0.15712406 0.031449854
0.20712952 -0.23757145 -0.08008623 0.11633911 0.29424214 0.18374002 0.081586726 -0.19083083
-0.16030104 0.035214983 -0.28416985 0.009261885 0.034841493 0.10898517 -0.11528989 -0.1253989
0.1530819 0.29352155 0.31412345 -0.024296457 0.0016789178 0.07438145 0.15553264 0.014968014
-0.301799 -0.119005024 -0.087714225 0.00063272705 -0.057498235 -0.018752564 -0.007047204 0.13780706
0.23275407 -0.1261368 -0.08262237 0.033887267 -0.08139378 -0.15931688 0.032414734 -0.15610558
-0.15842208 0.05888778 0.0014971668 -0.12029381 0.18769555 -0.118316986 0.21063302 -0.09006156
0.006190247 0.039613474 -0.1556181 -0.16980264 0.039977632 -0.05279067 0.26860085 0.22732371
0.23463847 -0.06864321 0.22298636 -0.25152567 0.08877908 0.07480246 -0.0201457 0.008247847
-0.07839926 0.028025221 0.23957309 0.04574938 0.119518414 0.085330844 0.008138997 0.028922431
-0.028204415 0.075790964 -0.1072151 0.20643777 0.1171577 0.1556127 0.0379953 -0.07913677
-0.13009031 -0.17658107 0.07028837 0.23329721 -0.03415924 0.13301621 0.06827835 0.013855661
-0.095368005 -0.06387562 -0.12007355 0.15988232 0.059076138 -0.14030755 -0.0038321416 0.2903207
00000000: 7120 3dbd 17ea bebc c8e5 5a3e f71e e1bd
00000010: 11bb 943d ce07 24bd 4620 03bc 80f8 fb3d
00000020: b7cf 3abe dae3 013e bbbe 9bbd 557f 5fbd
00000030: f502 ef3d a12d 7fbd cf09 a13e 5053 503c
00000040: 6d74 a2bc fdf4 1c3e fcda edbd 98ae f53d
00000050: ebd9 aabd aa61 333e a693 1f3e 0e1e ff3d
00000060: 23e0 3f3e b2af 33bd 6e77 82be 055b 32be
00000070: c24c a7be 42a4 c9bc 8b76 9dbe 7ccf 12be
00000080: 3780 b23d 5db5 dfbd 40ab 833e 6e2f 29bd
00000090: 8671 22be 8b1b 6ebe d9ec bebd b920 543e
000000a0: 1c47 43bd 477a 1a3e dc9d 113d 9a62 1dbe
000000b0: f493 c13e c685 093d 4540 30bb 3faa e6bd
000000c0: 0bd8 1f3d 3537 00be f274 e63c a901 8c3d
000000d0: 354e 57bd 0f16 f13d ee4e 22be d270 e43d
000000e0: 96e6 113c bdda b53d 4ff6 b63d dce6 623e
000000f0: 26bc cd3d 0a2f f63d 9618 0d3e 69ad 053e
00000100: 8e06 d2bb 1d23 f1be 2e86 9a3c 7903 233e
00000110: c31c 2b3d 67ac 1ebd 14de 0e3e 82b6 75bd
00000120: 1327 d4bd c093 3c3d bcec 783e 6fe6 463e
00000130: 9fb8 50bd 7969 13bd 01c6 7a3d 445b d33c
00000140: e681 08be 11ea cd3e edca 12bd bcea 4d3d
00000150: b2be 9a3d 9843 eb3d c888 743d 32d8 a8be
00000160: 1259 5bbe bc69 2b3e f151 e73c 8060 b6be
00000170: 9c6a 0a3e b30e 303e 778c a23d e824 57bd
00000180: 8605 143e 4a5e 3c3d a29a 773d 0f59 23be
00000190: 970b 303e 62dd 943b f248 6c3e 8d8c 45be
000001a0: fe99 2e3e 201c 6c3e 9835 523d 60cd 60bd
000001b0: 332c 22bd e02e e9bd d7c9 38be 1b9f 30be
000001c0: 9d1f 92be b5c8 2a3e 2179 4b3e 9437 9f3e
000001d0: 2a73 45be 9ae3 a0be 56f9 053e ae62 6e3d
000001e0: 2713 34bd 7910 28bc e5b2 53be 5d5b 43be
000001f0: 6ae7 5fbe 0a38 09be 3b46 ac3d 12d0 113e
00000200: 7008 3e3e c511 013d 9631 d23d 83f1 6bbe
00000210: eaa8 dfbd fe95 4bbe 7dd5 283e 142d 303e
00000220: 0d51 b23e 4f70 a5bd 9e54 9d3d ec35 ae3e
00000230: 922c f8bd 0513 193d bc51 063e 3dab ec3b
00000240: 6416 3bbd 62a0 03be a817 9dbd 1f5e 45be
00000250: 1197 8c3d 53cd 703c 6454 ad3e b657 15be
00000260: e197 00be 9e03 c5bd fe12 c5bd df70 403d
00000270: 4444 85be c94f 003e 21e5 203e 90d1 003d
00000280: c319 543e ee45 73be 4004 a4bd 3343 ee3d
00000290: e8a6 963e 5826 3c3e f116 a73d 2869 43be
000002a0: f525 24be 963d 103d b67e 91be 29bf 173c
000002b0: f4b5 0e3d 9e33 df3d 1b1d ecbd 9268 00be
000002c0: 80c1 1c3e 7548 963e cad4 a03e 5d09 c7bc
000002d0: 220f dc3a 4d55 983d f343 1f3e 673c 753c
000002e0: 6685 9abe e8b8 f3bd 84a3 b3bd 98dd 253a
000002f0: 4583 6bbd fa9e 99bc 3bec e6bb 4b1d 0d3e
00000300: 1557 6e3e 012a 01be eb35 a9bd 60cd 0a3d
00000310: c8b1 a6bd f723 23be 50c5 043d 24da 1fbe
00000320: 6639 22be 5034 713d 953c c43a 9a5c f6bd
00000330: 4333 403e 2d50 f2bd 2fb0 573e 3272 b8bd
00000340: 8ed7 ca3b bd41 223d 5a5a 1fbe bee0 2dbe
00000350: 96bf 233d 083b 58bd 0d86 893e 8cc7 683e
00000360: 1145 703e d094 8cbd 8956 643e f9c7 80be
00000370: ced1 b53d 0832 993d 9808 a5bc fa21 073c
00000380: cb8f a0bd 2695 e53c a652 753e b463 3b3d
00000390: 12c6 f43d f0c1 ae3d 6d59 053c bcee ec3c
000003a0: f20c e7bc 4b38 9b3d 9793 dbbd 6c64 533e
000003b0: 60f0 ef3d f058 1f3e f6a0 1b3d 7512 a2bd
000003c0: 6536 05be abd1 34be 59f3 8f3d 77e5 6e3e
000003d0: 8fea 0bbd 6735 083e 85d5 8b3d db02 633c
000003e0: 4d50 c3bd 39d1 82bd 1fe9 f5bd 31b8 233e
000003f0: d2f9 713d c8ac 0fbe ab24 7bbb eaa4 943e

network_body._body_endoder.seq_layers.0.bias f4 [10]
-0.00020433468 0.002228973 0.00024973493 -2.623929e-05 -0.0007254368 -0.0013244464 0.0016984615 0.0009209573
0.0018062133 0.0028073085
00000000: ac42 56b9 f613 123b dbee 8239 721c dcb7
00000010: 3d2b 3eba 0c99 adba e99e de3a 666c 713a
00000020: 76be ec3a d2fa 373b

network_body._body_endoder.seq_layers.2.weight f4 [10, 10]
0.30204654 -0.07599366 0.1582325 -0.12023499 -0.50465715 -0.18724848 -0.4335514 0.32675138
-0.05037734 0.061514843 0.163661 0.2632477 0.523759 -0.17892213 0.030812887 0.64824086
0.23306757 0.13646902 -0.32789323 -0.15841122 0.012549441 0.42759657 0.27277255 0.5396628
0.027873918 -0.14466451 -0.09404811 0.048564613 -0.29635805 -0.05980737 -0.06635057 -0.00032440101
0.17326723 -0.39830786 0.13695344 0.19407576 -0.22121553 0.1935095 0.49374735 0.21879275
0.34427294 0.23462063 0.2199997 -0.027803823 -0.6829266 -0.035555474 -0.4139638 -0.17295621
0.015083146 0.2508245 0.42199773 -0.10558042 -0.037190672 0.34269464 0.09294486 -0.3408416
-0.3985984 -0.124461375 -0.3874664 0.1494478 0.1347521 0.17737798 -0.10317473 0.24114877
-0.024347834 0.15900782 -0.0015215436 -0.056635357 -0.55650914 0.029504897 0.38567343 0.27950138
0.08965567 0.19236259 0.024682939 -0.08922195 -0.1683685 -0.16591403 0.10015083 0.35478824
-0.88770294 -0.285867 -0.3434801 -0.04528952 0.30386525 -0.48946434 -0.4561852 -0.28518707
-0.19040678 0.0078769345 0.28029427 -0.398197 -0.19523904 0.6647316 -0.17021786 -0.060444765
-0.2723409 -0.044318326 -0.55114573 -0.8774361
00000000: d8a5 9a3e 90a2 9bbd b307 223e c33d f6bd
00000010: 3631 01bf 11be 3fbe 73fa ddbe f54b a73e
00000020: 7858 4ebd fdf6 7b3d c096 273e 67c8 863e
00000030: 1215 063f 5d37 37be 4f6b fc3c 1df3 253f
00000040: 44a9 6e3e 89be 0b3e 9fe1 a7be 8d36 22be
00000050: 2c9c 4d3c f0ed da3e d8a8 8b3e 5727 0a3f
00000060: d857 e43c ef22 14be 4c9c c0bd b0eb 463d
00000070: 3ebc 97be 93f8 74bd cfe2 87bd 5e14 aab9
00000080: f76c 313e 02ef cbbe 863d 0c3e ccbb 463e
00000090: 5386 62be 5b27 463e 74cc fc3e 350b 603e
000000a0: 8b44 b03e 6440 703e 9a47 613e d8c4 e3bc
000000b0: 47d4 2ebf 9ea2 11bd 10f3 d3be 6f1b 31be
000000c0: 4d1f 773c 126c 803e 1610 d83e 8c3a d8bd
000000d0: 3f55 18bd ac75 af3e e059 be3d ca82 aebe
000000e0: 1715 ccbe 9be5 febd ff61 c6be d808 193e
000000f0: 74fc 093e 93a2 353e 464d d3bd b4ef 763e
00000100: 1c75 c7bc f2d2 223e 886e c7ba 7afa 67bd
00000110: 6277 0ebf 41b4 f13c fd76 c53e ce1a 8f3e
00000120: 649d b73d b3fa 443e e033 ca3c ffb9 b6bd
00000130: cb68 2cbe 5ee5 29be e11b cd3d cea6 b53e
00000140: 8040 63bf 295d 92be a0dc afbe 8181 39bd
00000150: 3a94 9b3e 129b fabe 1b91 e9be 0a04 92be
00000160: fff9 42be 420e 013c bb82 8f3e 7ae0 cbbe
00000170: beec 47be da2b 2a3f 974d 2ebe ee94 77bd
00000180: 4470 8bbe 2287 35bd e317 0dbf a79f 60bf

network_body._body_endoder.seq_layers.2.bias f4 [10]
-0.0009581858 -0.000247004 -0.0023397515 0.0017919304 0.0024584087 -0.0008089745 0.0021100913 -0.0017456675
-0.0022872658 -0.0003006369
00000000: c32e 7bba 5180 81b9 8456 19bb 35df ea3a
00000010: 411d 213b 5c11 54ba 7549 0a3b e2ce e4ba
00000020: f4e5 15bb cd9e 9db9

action_model._discrete_distribution.branches.0.weight f4 [3, 10]
-0.0011162907 -0.01680302 0.048833404 -0.03464245 -0.042421527 0.021300616 -0.031945292 0.006242786
0.07134344 0.033163626 -0.040981356 0.016148768 0.021210987 -0.044051927 -0.013795545 -0.011972073
0.08041962 -0.034334973 -0.015123193 -0.002127662 -0.03561369 -0.021807723 -0.035366442 0.0077752443
0.011368435 0.024451835 0.016892793 -0.057348784 0.023360567 0.007685621
00000000: 8050 92ba 7da6 89bc 8905 483d 3ee5 0dbd
00000010: 32c2 2dbd a17e ae3c 11d9 02bd 4990 cc3b
00000020: 821c 923d 95d6 073d 11dc 27bd 6c4a 843c
00000030: aac2 ad3c cb6f 34bd b606 62bc 8426 44bc
00000040: 0bb3 a43d d4a2 0cbd 45c7 77bc 3f70 0bbb
00000050: a9df 11bd 1ca6 b2bc 67dc 10bd 7ac7 fe3b
00000060: ac42 3a3c 374f c83c c162 8a3c 8fe6 6abd
00000070: a95e bf3c a9d7 fb3b

action_model._discrete_distribution.branches.0.bias f4 [3]
-0.0029204455 0.0003457684 0.0035851293
00000000: f264 3fbb 4048 b539 7df4 6a3b

action_model._discrete_distribution.branches.1.weight f4 [3, 10]
-0.012701691 0.0037022084 0.08092873 -0.014149468 -0.0738129 -0.008282305 -0.037045926 -0.06898978
0.0282339 -0.0028890534 -0.039400917 -0.035871178 -0.029854316 -0.009981252 0.012893178 -0.010779285
-0.0050006597 0.009454269 -0.0074285367 -0.044024903 0.04281832 0.031886503 0.0068120556 -0.02325744
0.021316338 -0.035527967 0.005372789 -0.026542455 -0.005335889 0.060973093
00000000: c11a 50bc c0a0 723b f6bd a53d 2cd3 67bc
00000010: 382b 97bd 81b2 07bc 78bd 17bd 844a 8dbd
00000020: c84a e73c 4656 3dbb db62 21bd a8ed 12bd
00000030: 0a91 f4bc 6888 23bc e83d 533c 999b 30bc
00000040: 93dc a3bb 14e6 1a3c 156b f3bb 7553 34bd
00000050: 4362 2f3d 6c9b 023d aa37 df3b 6386 bebc
00000060: 9a9f ae3c c685 11bd 390e b03b 906f d9bc
00000070: aed8 aebb ecbe 793d

action_model._discrete_distribution.branches.1.bias f4 [3]
-0.0014075137 -6.265933e-05 0.00084763905
00000000: 537c b8ba f967 83b8 1834 5e3a
